…
head.layers.41.cls_layers.5.weight - torch.Size([256]): 
The value is the same before and after calling `init_weights` of Sparse4D  

head.layers.41.cls_layers.5.bias - torch.Size([256]): 
The value is the same before and after calling `init_weights` of Sparse4D  

head.layers.41.cls_layers.6.weight - torch.Size([10, 256]): 
The value is the same before and after calling `init_weights` of Sparse4D  

head.layers.41.cls_layers.6.bias - torch.Size([10]): 
Initialized by user-defined `init_weights` in Sparse4DHead  
2024-11-11 06:05:36,290 - mmdet - INFO - Model:
Sparse4D(
  (img_backbone): ResNet(
    (conv1): Conv2d(3, 64, kernel_size=(7, 7), stride=(2, 2), padding=(3, 3), bias=False)
    (bn1): BatchNorm2d(64, eps=1e-05, momentum=0.1, affine=True, track_running_stats=True)
    (relu): ReLU(inplace=True)
    (maxpool): MaxPool2d(kernel_size=3, stride=2, padding=1, dilation=1, ceil_mode=False)
    (layer1): ResLayer(
      (0): Bottleneck(
        (conv1): Conv2d(64, 64, kernel_size=(1, 1), stride=(1, 1), bias=False)
        (bn1): BatchNorm2d(64, eps=1e-05, momentum=0.1, affine=True, track_running_stats=True)
        (conv2): Conv2d(64, 64, kernel_size=(3, 3), stride=(1, 1), padding=(1, 1), bias=False)
        (bn2): BatchNorm2d(64, eps=1e-05, momentum=0.1, affine=True, track_running_stats=True)
        (conv3): Conv2d(64, 256, kernel_size=(1, 1), stride=(1, 1), bias=False)
        (bn3): BatchNorm2d(256, eps=1e-05, momentum=0.1, affine=True, track_running_stats=True)
        (relu): ReLU(inplace=True)
        (downsample): Sequential(
          (0): Conv2d(64, 256, kernel_size=(1, 1), stride=(1, 1), bias=False)
          (1): BatchNorm2d(256, eps=1e-05, momentum=0.1, affine=True, track_running_stats=True)
        )
      )
      init_cfg={'type': 'Constant', 'val': 0, 'override': {'name': 'norm3'}}
      (1): Bottleneck(
        (conv1): Conv2d(256, 64, kernel_size=(1, 1), stride=(1, 1), bias=False)
        (bn1): BatchNorm2d(64, eps=1e-05, momentum=0.1, affine=True, track_running_stats=True)
        (conv2): Conv2d(64, 64, kernel_size=(3, 3), stride=(1, 1), padding=(1, 1), bias=False)
        (bn2): BatchNorm2d(64, eps=1e-05, momentum=0.1, affine=True, track_running_stats=True)
        (conv3): Conv2d(64, 256, kernel_size=(1, 1), stride=(1, 1), bias=False)
        (bn3): BatchNorm2d(256, eps=1e-05, momentum=0.1, affine=True, track_running_stats=True)
        (relu): ReLU(inplace=True)
      )
      init_cfg={'type': 'Constant', 'val': 0, 'override': {'name': 'norm3'}}
      (2): Bottleneck(
        (conv1): Conv2d(256, 64, kernel_size=(1, 1), stride=(1, 1), bias=False)
        (bn1): BatchNorm2d(64, eps=1e-05, momentum=0.1, affine=True, track_running_stats=True)
        (conv2): Conv2d(64, 64, kernel_size=(3, 3), stride=(1, 1), padding=(1, 1), bias=False)
        (bn2): BatchNorm2d(64, eps=1e-05, momentum=0.1, affine=True, track_running_stats=True)
        (conv3): Conv2d(64, 256, kernel_size=(1, 1), stride=(1, 1), bias=False)
        (bn3): BatchNorm2d(256, eps=1e-05, momentum=0.1, affine=True, track_running_stats=True)
        (relu): ReLU(inplace=True)
      )
      init_cfg={'type': 'Constant', 'val': 0, 'override': {'name': 'norm3'}}
    )
    (layer2): ResLayer(
      (0): Bottleneck(
        (conv1): Conv2d(256, 128, kernel_size=(1, 1), stride=(2, 2), bias=False)
        (bn1): BatchNorm2d(128, eps=1e-05, momentum=0.1, affine=True, track_running_stats=True)
        (conv2): Conv2d(128, 128, kernel_size=(3, 3), stride=(1, 1), padding=(1, 1), bias=False)
        (bn2): BatchNorm2d(128, eps=1e-05, momentum=0.1, affine=True, track_running_stats=True)
        (conv3): Conv2d(128, 512, kernel_size=(1, 1), stride=(1, 1), bias=False)
        (bn3): BatchNorm2d(512, eps=1e-05, momentum=0.1, affine=True, track_running_stats=True)
        (relu): ReLU(inplace=True)
        (downsample): Sequential(
          (0): Conv2d(256, 512, kernel_size=(1, 1), stride=(2, 2), bias=False)
          (1): BatchNorm2d(512, eps=1e-05, momentum=0.1, affine=True, track_running_stats=True)
        )
      )
      init_cfg={'type': 'Constant', 'val': 0, 'override': {'name': 'norm3'}}
      (1): Bottleneck(
        (conv1): Conv2d(512, 128, kernel_size=(1, 1), stride=(1, 1), bias=False)
        (bn1): BatchNorm2d(128, eps=1e-05, momentum=0.1, affine=True, track_running_stats=True)
        (conv2): Conv2d(128, 128, kernel_size=(3, 3), stride=(1, 1), padding=(1, 1), bias=False)
        (bn2): BatchNorm2d(128, eps=1e-05, momentum=0.1, affine=True, track_running_stats=True)
        (conv3): Conv2d(128, 512, kernel_size=(1, 1), stride=(1, 1), bias=False)
        (bn3): BatchNorm2d(512, eps=1e-05, momentum=0.1, affine=True, track_running_stats=True)
        (relu): ReLU(inplace=True)
      )
      init_cfg={'type': 'Constant', 'val': 0, 'override': {'name': 'norm3'}}
      (2): Bottleneck(
        (conv1): Conv2d(512, 128, kernel_size=(1, 1), stride=(1, 1), bias=False)
        (bn1): BatchNorm2d(128, eps=1e-05, momentum=0.1, affine=True, track_running_stats=True)
        (conv2): Conv2d(128, 128, kernel_size=(3, 3), stride=(1, 1), padding=(1, 1), bias=False)
        (bn2): BatchNorm2d(128, eps=1e-05, momentum=0.1, affine=True, track_running_stats=True)
        (conv3): Conv2d(128, 512, kernel_size=(1, 1), stride=(1, 1), bias=False)
        (bn3): BatchNorm2d(512, eps=1e-05, momentum=0.1, affine=True, track_running_stats=True)
        (relu): ReLU(inplace=True)
      )
      init_cfg={'type': 'Constant', 'val': 0, 'override': {'name': 'norm3'}}
      (3): Bottleneck(
        (conv1): Conv2d(512, 128, kernel_size=(1, 1), stride=(1, 1), bias=False)
        (bn1): BatchNorm2d(128, eps=1e-05, momentum=0.1, affine=True, track_running_stats=True)
        (conv2): Conv2d(128, 128, kernel_size=(3, 3), stride=(1, 1), padding=(1, 1), bias=False)
        (bn2): BatchNorm2d(128, eps=1e-05, momentum=0.1, affine=True, track_running_stats=True)
        (conv3): Conv2d(128, 512, kernel_size=(1, 1), stride=(1, 1), bias=False)
        (bn3): BatchNorm2d(512, eps=1e-05, momentum=0.1, affine=True, track_running_stats=True)
        (relu): ReLU(inplace=True)
      )
      init_cfg={'type': 'Constant', 'val': 0, 'override': {'name': 'norm3'}}
    )
    (layer3): ResLayer(
      (0): Bottleneck(
        (conv1): Conv2d(512, 256, kernel_size=(1, 1), stride=(2, 2), bias=False)
        (bn1): BatchNorm2d(256, eps=1e-05, momentum=0.1, affine=True, track_running_stats=True)
        (conv2): ModulatedDeformConv2dPack(
          (conv_offset): Conv2d(256, 27, kernel_size=(3, 3), stride=(1, 1), padding=(1, 1))
        )
        (bn2): BatchNorm2d(256, eps=1e-05, momentum=0.1, affine=True, track_running_stats=True)
        (conv3): Conv2d(256, 1024, kernel_size=(1, 1), stride=(1, 1), bias=False)
        (bn3): BatchNorm2d(1024, eps=1e-05, momentum=0.1, affine=True, track_running_stats=True)
        (relu): ReLU(inplace=True)
        (downsample): Sequential(
          (0): Conv2d(512, 1024, kernel_size=(1, 1), stride=(2, 2), bias=False)
          (1): BatchNorm2d(1024, eps=1e-05, momentum=0.1, affine=True, track_running_stats=True)
        )
      )
      init_cfg={'type': 'Constant', 'val': 0, 'override': {'name': 'norm3'}}
      (1): Bottleneck(
        (conv1): Conv2d(1024, 256, kernel_size=(1, 1), stride=(1, 1), bias=False)
        (bn1): BatchNorm2d(256, eps=1e-05, momentum=0.1, affine=True, track_running_stats=True)
        (conv2): ModulatedDeformConv2dPack(
          (conv_offset): Conv2d(256, 27, kernel_size=(3, 3), stride=(1, 1), padding=(1, 1))
        )
        (bn2): BatchNorm2d(256, eps=1e-05, momentum=0.1, affine=True, track_running_stats=True)
        (conv3): Conv2d(256, 1024, kernel_size=(1, 1), stride=(1, 1), bias=False)
        (bn3): BatchNorm2d(1024, eps=1e-05, momentum=0.1, affine=True, track_running_stats=True)
        (relu): ReLU(inplace=True)
      )
      init_cfg={'type': 'Constant', 'val': 0, 'override': {'name': 'norm3'}}
      (2): Bottleneck(
        (conv1): Conv2d(1024, 256, kernel_size=(1, 1), stride=(1, 1), bias=False)
        (bn1): BatchNorm2d(256, eps=1e-05, momentum=0.1, affine=True, track_running_stats=True)
        (conv2): ModulatedDeformConv2dPack(
          (conv_offset): Conv2d(256, 27, kernel_size=(3, 3), stride=(1, 1), padding=(1, 1))
        )
        (bn2): BatchNorm2d(256, eps=1e-05, momentum=0.1, affine=True, track_running_stats=True)
        (conv3): Conv2d(256, 1024, kernel_size=(1, 1), stride=(1, 1), bias=False)
        (bn3): BatchNorm2d(1024, eps=1e-05, momentum=0.1, affine=True, track_running_stats=True)
        (relu): ReLU(inplace=True)
      )
      init_cfg={'type': 'Constant', 'val': 0, 'override': {'name': 'norm3'}}
      (3): Bottleneck(
        (conv1): Conv2d(1024, 256, kernel_size=(1, 1), stride=(1, 1), bias=False)
        (bn1): BatchNorm2d(256, eps=1e-05, momentum=0.1, affine=True, track_running_stats=True)
        (conv2): ModulatedDeformConv2dPack(
          (conv_offset): Conv2d(256, 27, kernel_size=(3, 3), stride=(1, 1), padding=(1, 1))
        )
        (bn2): BatchNorm2d(256, eps=1e-05, momentum=0.1, affine=True, track_running_stats=True)
        (conv3): Conv2d(256, 1024, kernel_size=(1, 1), stride=(1, 1), bias=False)
        (bn3): BatchNorm2d(1024, eps=1e-05, momentum=0.1, affine=True, track_running_stats=True)
        (relu): ReLU(inplace=True)
      )
      init_cfg={'type': 'Constant', 'val': 0, 'override': {'name': 'norm3'}}
      (4): Bottleneck(
        (conv1): Conv2d(1024, 256, kernel_size=(1, 1), stride=(1, 1), bias=False)
        (bn1): BatchNorm2d(256, eps=1e-05, momentum=0.1, affine=True, track_running_stats=True)
        (conv2): ModulatedDeformConv2dPack(
          (conv_offset): Conv2d(256, 27, kernel_size=(3, 3), stride=(1, 1), padding=(1, 1))
        )
        (bn2): BatchNorm2d(256, eps=1e-05, momentum=0.1, affine=True, track_running_stats=True)
        (conv3): Conv2d(256, 1024, kernel_size=(1, 1), stride=(1, 1), bias=False)
        (bn3): BatchNorm2d(1024, eps=1e-05, momentum=0.1, affine=True, track_running_stats=True)
        (relu): ReLU(inplace=True)
      )
      init_cfg={'type': 'Constant', 'val': 0, 'override': {'name': 'norm3'}}
      (5): Bottleneck(
        (conv1): Conv2d(1024, 256, kernel_size=(1, 1), stride=(1, 1), bias=False)
        (bn1): BatchNorm2d(256, eps=1e-05, momentum=0.1, affine=True, track_running_stats=True)
        (conv2): ModulatedDeformConv2dPack(
          (conv_offset): Conv2d(256, 27, kernel_size=(3, 3), stride=(1, 1), padding=(1, 1))
        )
        (bn2): BatchNorm2d(256, eps=1e-05, momentum=0.1, affine=True, track_running_stats=True)
        (conv3): Conv2d(256, 1024, kernel_size=(1, 1), stride=(1, 1), bias=False)
        (bn3): BatchNorm2d(1024, eps=1e-05, momentum=0.1, affine=True, track_running_stats=True)
        (relu): ReLU(inplace=True)
      )
      init_cfg={'type': 'Constant', 'val': 0, 'override': {'name': 'norm3'}}
      (6): Bottleneck(
        (conv1): Conv2d(1024, 256, kernel_size=(1, 1), stride=(1, 1), bias=False)
        (bn1): BatchNorm2d(256, eps=1e-05, momentum=0.1, affine=True, track_running_stats=True)
        (conv2): ModulatedDeformConv2dPack(
          (conv_offset): Conv2d(256, 27, kernel_size=(3, 3), stride=(1, 1), padding=(1, 1))
        )
        (bn2): BatchNorm2d(256, eps=1e-05, momentum=0.1, affine=True, track_running_stats=True)
        (conv3): Conv2d(256, 1024, kernel_size=(1, 1), stride=(1, 1), bias=False)
        (bn3): BatchNorm2d(1024, eps=1e-05, momentum=0.1, affine=True, track_running_stats=True)
        (relu): ReLU(inplace=True)
      )
      init_cfg={'type': 'Constant', 'val': 0, 'override': {'name': 'norm3'}}
      (7): Bottleneck(
        (conv1): Conv2d(1024, 256, kernel_size=(1, 1), stride=(1, 1), bias=False)
        (bn1): BatchNorm2d(256, eps=1e-05, momentum=0.1, affine=True, track_running_stats=True)
        (conv2): ModulatedDeformConv2dPack(
          (conv_offset): Conv2d(256, 27, kernel_size=(3, 3), stride=(1, 1), padding=(1, 1))
        )
        (bn2): BatchNorm2d(256, eps=1e-05, momentum=0.1, affine=True, track_running_stats=True)
        (conv3): Conv2d(256, 1024, kernel_size=(1, 1), stride=(1, 1), bias=False)
        (bn3): BatchNorm2d(1024, eps=1e-05, momentum=0.1, affine=True, track_running_stats=True)
        (relu): ReLU(inplace=True)
      )
      init_cfg={'type': 'Constant', 'val': 0, 'override': {'name': 'norm3'}}
      (8): Bottleneck(
        (conv1): Conv2d(1024, 256, kernel_size=(1, 1), stride=(1, 1), bias=False)
        (bn1): BatchNorm2d(256, eps=1e-05, momentum=0.1, affine=True, track_running_stats=True)
        (conv2): ModulatedDeformConv2dPack(
          (conv_offset): Conv2d(256, 27, kernel_size=(3, 3), stride=(1, 1), padding=(1, 1))
        )
        (bn2): BatchNorm2d(256, eps=1e-05, momentum=0.1, affine=True, track_running_stats=True)
        (conv3): Conv2d(256, 1024, kernel_size=(1, 1), stride=(1, 1), bias=False)
        (bn3): BatchNorm2d(1024, eps=1e-05, momentum=0.1, affine=True, track_running_stats=True)
        (relu): ReLU(inplace=True)
      )
      init_cfg={'type': 'Constant', 'val': 0, 'override': {'name': 'norm3'}}
      (9): Bottleneck(
        (conv1): Conv2d(1024, 256, kernel_size=(1, 1), stride=(1, 1), bias=False)
        (bn1): BatchNorm2d(256, eps=1e-05, momentum=0.1, affine=True, track_running_stats=True)
        (conv2): ModulatedDeformConv2dPack(
          (conv_offset): Conv2d(256, 27, kernel_size=(3, 3), stride=(1, 1), padding=(1, 1))
        )
        (bn2): BatchNorm2d(256, eps=1e-05, momentum=0.1, affine=True, track_running_stats=True)
        (conv3): Conv2d(256, 1024, kernel_size=(1, 1), stride=(1, 1), bias=False)
        (bn3): BatchNorm2d(1024, eps=1e-05, momentum=0.1, affine=True, track_running_stats=True)
        (relu): ReLU(inplace=True)
      )
      init_cfg={'type': 'Constant', 'val': 0, 'override': {'name': 'norm3'}}
      (10): Bottleneck(
        (conv1): Conv2d(1024, 256, kernel_size=(1, 1), stride=(1, 1), bias=False)
        (bn1): BatchNorm2d(256, eps=1e-05, momentum=0.1, affine=True, track_running_stats=True)
        (conv2): ModulatedDeformConv2dPack(
          (conv_offset): Conv2d(256, 27, kernel_size=(3, 3), stride=(1, 1), padding=(1, 1))
        )
        (bn2): BatchNorm2d(256, eps=1e-05, momentum=0.1, affine=True, track_running_stats=True)
        (conv3): Conv2d(256, 1024, kernel_size=(1, 1), stride=(1, 1), bias=False)
        (bn3): BatchNorm2d(1024, eps=1e-05, momentum=0.1, affine=True, track_running_stats=True)
        (relu): ReLU(inplace=True)
      )
      init_cfg={'type': 'Constant', 'val': 0, 'override': {'name': 'norm3'}}
      (11): Bottleneck(
        (conv1): Conv2d(1024, 256, kernel_size=(1, 1), stride=(1, 1), bias=False)
        (bn1): BatchNorm2d(256, eps=1e-05, momentum=0.1, affine=True, track_running_stats=True)
        (conv2): ModulatedDeformConv2dPack(
          (conv_offset): Conv2d(256, 27, kernel_size=(3, 3), stride=(1, 1), padding=(1, 1))
        )
        (bn2): BatchNorm2d(256, eps=1e-05, momentum=0.1, affine=True, track_running_stats=True)
        (conv3): Conv2d(256, 1024, kernel_size=(1, 1), stride=(1, 1), bias=False)
        (bn3): BatchNorm2d(1024, eps=1e-05, momentum=0.1, affine=True, track_running_stats=True)
        (relu): ReLU(inplace=True)
      )
      init_cfg={'type': 'Constant', 'val': 0, 'override': {'name': 'norm3'}}
      (12): Bottleneck(
        (conv1): Conv2d(1024, 256, kernel_size=(1, 1), stride=(1, 1), bias=False)
        (bn1): BatchNorm2d(256, eps=1e-05, momentum=0.1, affine=True, track_running_stats=True)
        (conv2): ModulatedDeformConv2dPack(
          (conv_offset): Conv2d(256, 27, kernel_size=(3, 3), stride=(1, 1), padding=(1, 1))
        )
        (bn2): BatchNorm2d(256, eps=1e-05, momentum=0.1, affine=True, track_running_stats=True)
        (conv3): Conv2d(256, 1024, kernel_size=(1, 1), stride=(1, 1), bias=False)
        (bn3): BatchNorm2d(1024, eps=1e-05, momentum=0.1, affine=True, track_running_stats=True)
        (relu): ReLU(inplace=True)
      )
      init_cfg={'type': 'Constant', 'val': 0, 'override': {'name': 'norm3'}}
      (13): Bottleneck(
        (conv1): Conv2d(1024, 256, kernel_size=(1, 1), stride=(1, 1), bias=False)
        (bn1): BatchNorm2d(256, eps=1e-05, momentum=0.1, affine=True, track_running_stats=True)
        (conv2): ModulatedDeformConv2dPack(
          (conv_offset): Conv2d(256, 27, kernel_size=(3, 3), stride=(1, 1), padding=(1, 1))
        )
        (bn2): BatchNorm2d(256, eps=1e-05, momentum=0.1, affine=True, track_running_stats=True)
        (conv3): Conv2d(256, 1024, kernel_size=(1, 1), stride=(1, 1), bias=False)
        (bn3): BatchNorm2d(1024, eps=1e-05, momentum=0.1, affine=True, track_running_stats=True)
        (relu): ReLU(inplace=True)
      )
      init_cfg={'type': 'Constant', 'val': 0, 'override': {'name': 'norm3'}}
      (14): Bottleneck(
        (conv1): Conv2d(1024, 256, kernel_size=(1, 1), stride=(1, 1), bias=False)
        (bn1): BatchNorm2d(256, eps=1e-05, momentum=0.1, affine=True, track_running_stats=True)
        (conv2): ModulatedDeformConv2dPack(
          (conv_offset): Conv2d(256, 27, kernel_size=(3, 3), stride=(1, 1), padding=(1, 1))
        )
        (bn2): BatchNorm2d(256, eps=1e-05, momentum=0.1, affine=True, track_running_stats=True)
        (conv3): Conv2d(256, 1024, kernel_size=(1, 1), stride=(1, 1), bias=False)
        (bn3): BatchNorm2d(1024, eps=1e-05, momentum=0.1, affine=True, track_running_stats=True)
        (relu): ReLU(inplace=True)
      )
      init_cfg={'type': 'Constant', 'val': 0, 'override': {'name': 'norm3'}}
      (15): Bottleneck(
        (conv1): Conv2d(1024, 256, kernel_size=(1, 1), stride=(1, 1), bias=False)
        (bn1): BatchNorm2d(256, eps=1e-05, momentum=0.1, affine=True, track_running_stats=True)
        (conv2): ModulatedDeformConv2dPack(
          (conv_offset): Conv2d(256, 27, kernel_size=(3, 3), stride=(1, 1), padding=(1, 1))
        )
        (bn2): BatchNorm2d(256, eps=1e-05, momentum=0.1, affine=True, track_running_stats=True)
        (conv3): Conv2d(256, 1024, kernel_size=(1, 1), stride=(1, 1), bias=False)
        (bn3): BatchNorm2d(1024, eps=1e-05, momentum=0.1, affine=True, track_running_stats=True)
        (relu): ReLU(inplace=True)
      )
      init_cfg={'type': 'Constant', 'val': 0, 'override': {'name': 'norm3'}}
      (16): Bottleneck(
        (conv1): Conv2d(1024, 256, kernel_size=(1, 1), stride=(1, 1), bias=False)
        (bn1): BatchNorm2d(256, eps=1e-05, momentum=0.1, affine=True, track_running_stats=True)
        (conv2): ModulatedDeformConv2dPack(
          (conv_offset): Conv2d(256, 27, kernel_size=(3, 3), stride=(1, 1), padding=(1, 1))
        )
        (bn2): BatchNorm2d(256, eps=1e-05, momentum=0.1, affine=True, track_running_stats=True)
        (conv3): Conv2d(256, 1024, kernel_size=(1, 1), stride=(1, 1), bias=False)
        (bn3): BatchNorm2d(1024, eps=1e-05, momentum=0.1, affine=True, track_running_stats=True)
        (relu): ReLU(inplace=True)
      )
      init_cfg={'type': 'Constant', 'val': 0, 'override': {'name': 'norm3'}}
      (17): Bottleneck(
        (conv1): Conv2d(1024, 256, kernel_size=(1, 1), stride=(1, 1), bias=False)
        (bn1): BatchNorm2d(256, eps=1e-05, momentum=0.1, affine=True, track_running_stats=True)
        (conv2): ModulatedDeformConv2dPack(
          (conv_offset): Conv2d(256, 27, kernel_size=(3, 3), stride=(1, 1), padding=(1, 1))
        )
        (bn2): BatchNorm2d(256, eps=1e-05, momentum=0.1, affine=True, track_running_stats=True)
        (conv3): Conv2d(256, 1024, kernel_size=(1, 1), stride=(1, 1), bias=False)
        (bn3): BatchNorm2d(1024, eps=1e-05, momentum=0.1, affine=True, track_running_stats=True)
        (relu): ReLU(inplace=True)
      )
      init_cfg={'type': 'Constant', 'val': 0, 'override': {'name': 'norm3'}}
      (18): Bottleneck(
        (conv1): Conv2d(1024, 256, kernel_size=(1, 1), stride=(1, 1), bias=False)
        (bn1): BatchNorm2d(256, eps=1e-05, momentum=0.1, affine=True, track_running_stats=True)
        (conv2): ModulatedDeformConv2dPack(
          (conv_offset): Conv2d(256, 27, kernel_size=(3, 3), stride=(1, 1), padding=(1, 1))
        )
        (bn2): BatchNorm2d(256, eps=1e-05, momentum=0.1, affine=True, track_running_stats=True)
        (conv3): Conv2d(256, 1024, kernel_size=(1, 1), stride=(1, 1), bias=False)
        (bn3): BatchNorm2d(1024, eps=1e-05, momentum=0.1, affine=True, track_running_stats=True)
        (relu): ReLU(inplace=True)
      )
      init_cfg={'type': 'Constant', 'val': 0, 'override': {'name': 'norm3'}}
      (19): Bottleneck(
        (conv1): Conv2d(1024, 256, kernel_size=(1, 1), stride=(1, 1), bias=False)
        (bn1): BatchNorm2d(256, eps=1e-05, momentum=0.1, affine=True, track_running_stats=True)
        (conv2): ModulatedDeformConv2dPack(
          (conv_offset): Conv2d(256, 27, kernel_size=(3, 3), stride=(1, 1), padding=(1, 1))
        )
        (bn2): BatchNorm2d(256, eps=1e-05, momentum=0.1, affine=True, track_running_stats=True)
        (conv3): Conv2d(256, 1024, kernel_size=(1, 1), stride=(1, 1), bias=False)
        (bn3): BatchNorm2d(1024, eps=1e-05, momentum=0.1, affine=True, track_running_stats=True)
        (relu): ReLU(inplace=True)
      )
      init_cfg={'type': 'Constant', 'val': 0, 'override': {'name': 'norm3'}}
      (20): Bottleneck(
        (conv1): Conv2d(1024, 256, kernel_size=(1, 1), stride=(1, 1), bias=False)
        (bn1): BatchNorm2d(256, eps=1e-05, momentum=0.1, affine=True, track_running_stats=True)
        (conv2): ModulatedDeformConv2dPack(
          (conv_offset): Conv2d(256, 27, kernel_size=(3, 3), stride=(1, 1), padding=(1, 1))
        )
        (bn2): BatchNorm2d(256, eps=1e-05, momentum=0.1, affine=True, track_running_stats=True)
        (conv3): Conv2d(256, 1024, kernel_size=(1, 1), stride=(1, 1), bias=False)
        (bn3): BatchNorm2d(1024, eps=1e-05, momentum=0.1, affine=True, track_running_stats=True)
        (relu): ReLU(inplace=True)
      )
      init_cfg={'type': 'Constant', 'val': 0, 'override': {'name': 'norm3'}}
      (21): Bottleneck(
        (conv1): Conv2d(1024, 256, kernel_size=(1, 1), stride=(1, 1), bias=False)
        (bn1): BatchNorm2d(256, eps=1e-05, momentum=0.1, affine=True, track_running_stats=True)
        (conv2): ModulatedDeformConv2dPack(
          (conv_offset): Conv2d(256, 27, kernel_size=(3, 3), stride=(1, 1), padding=(1, 1))
        )
        (bn2): BatchNorm2d(256, eps=1e-05, momentum=0.1, affine=True, track_running_stats=True)
        (conv3): Conv2d(256, 1024, kernel_size=(1, 1), stride=(1, 1), bias=False)
        (bn3): BatchNorm2d(1024, eps=1e-05, momentum=0.1, affine=True, track_running_stats=True)
        (relu): ReLU(inplace=True)
      )
      init_cfg={'type': 'Constant', 'val': 0, 'override': {'name': 'norm3'}}
      (22): Bottleneck(
        (conv1): Conv2d(1024, 256, kernel_size=(1, 1), stride=(1, 1), bias=False)
        (bn1): BatchNorm2d(256, eps=1e-05, momentum=0.1, affine=True, track_running_stats=True)
        (conv2): ModulatedDeformConv2dPack(
          (conv_offset): Conv2d(256, 27, kernel_size=(3, 3), stride=(1, 1), padding=(1, 1))
        )
        (bn2): BatchNorm2d(256, eps=1e-05, momentum=0.1, affine=True, track_running_stats=True)
        (conv3): Conv2d(256, 1024, kernel_size=(1, 1), stride=(1, 1), bias=False)
        (bn3): BatchNorm2d(1024, eps=1e-05, momentum=0.1, affine=True, track_running_stats=True)
        (relu): ReLU(inplace=True)
      )
      init_cfg={'type': 'Constant', 'val': 0, 'override': {'name': 'norm3'}}
    )
    (layer4): ResLayer(
      (0): Bottleneck(
        (conv1): Conv2d(1024, 512, kernel_size=(1, 1), stride=(2, 2), bias=False)
        (bn1): BatchNorm2d(512, eps=1e-05, momentum=0.1, affine=True, track_running_stats=True)
        (conv2): ModulatedDeformConv2dPack(
          (conv_offset): Conv2d(512, 27, kernel_size=(3, 3), stride=(1, 1), padding=(1, 1))
        )
        (bn2): BatchNorm2d(512, eps=1e-05, momentum=0.1, affine=True, track_running_stats=True)
        (conv3): Conv2d(512, 2048, kernel_size=(1, 1), stride=(1, 1), bias=False)
        (bn3): BatchNorm2d(2048, eps=1e-05, momentum=0.1, affine=True, track_running_stats=True)
        (relu): ReLU(inplace=True)
        (downsample): Sequential(
          (0): Conv2d(1024, 2048, kernel_size=(1, 1), stride=(2, 2), bias=False)
          (1): BatchNorm2d(2048, eps=1e-05, momentum=0.1, affine=True, track_running_stats=True)
        )
      )
      init_cfg={'type': 'Constant', 'val': 0, 'override': {'name': 'norm3'}}
      (1): Bottleneck(
        (conv1): Conv2d(2048, 512, kernel_size=(1, 1), stride=(1, 1), bias=False)
        (bn1): BatchNorm2d(512, eps=1e-05, momentum=0.1, affine=True, track_running_stats=True)
        (conv2): ModulatedDeformConv2dPack(
          (conv_offset): Conv2d(512, 27, kernel_size=(3, 3), stride=(1, 1), padding=(1, 1))
        )
        (bn2): BatchNorm2d(512, eps=1e-05, momentum=0.1, affine=True, track_running_stats=True)
        (conv3): Conv2d(512, 2048, kernel_size=(1, 1), stride=(1, 1), bias=False)
        (bn3): BatchNorm2d(2048, eps=1e-05, momentum=0.1, affine=True, track_running_stats=True)
        (relu): ReLU(inplace=True)
      )
      init_cfg={'type': 'Constant', 'val': 0, 'override': {'name': 'norm3'}}
      (2): Bottleneck(
        (conv1): Conv2d(2048, 512, kernel_size=(1, 1), stride=(1, 1), bias=False)
        (bn1): BatchNorm2d(512, eps=1e-05, momentum=0.1, affine=True, track_running_stats=True)
        (conv2): ModulatedDeformConv2dPack(
          (conv_offset): Conv2d(512, 27, kernel_size=(3, 3), stride=(1, 1), padding=(1, 1))
        )
        (bn2): BatchNorm2d(512, eps=1e-05, momentum=0.1, affine=True, track_running_stats=True)
        (conv3): Conv2d(512, 2048, kernel_size=(1, 1), stride=(1, 1), bias=False)
        (bn3): BatchNorm2d(2048, eps=1e-05, momentum=0.1, affine=True, track_running_stats=True)
        (relu): ReLU(inplace=True)
      )
      init_cfg={'type': 'Constant', 'val': 0, 'override': {'name': 'norm3'}}
    )
  )
  init_cfg=[{'type': 'Kaiming', 'layer': 'Conv2d'}, {'type': 'Constant', 'val': 1, 'layer': ['_BatchNorm', 'GroupNorm']}]
  (img_neck): FPN(
    (lateral_convs): ModuleList(
      (0): ConvModule(
        (conv): Conv2d(512, 256, kernel_size=(1, 1), stride=(1, 1))
      )
      (1): ConvModule(
        (conv): Conv2d(1024, 256, kernel_size=(1, 1), stride=(1, 1))
      )
      (2): ConvModule(
        (conv): Conv2d(2048, 256, kernel_size=(1, 1), stride=(1, 1))
      )
    )
    (fpn_convs): ModuleList(
      (0): ConvModule(
        (conv): Conv2d(256, 256, kernel_size=(3, 3), stride=(1, 1), padding=(1, 1))
      )
      (1): ConvModule(
        (conv): Conv2d(256, 256, kernel_size=(3, 3), stride=(1, 1), padding=(1, 1))
      )
      (2): ConvModule(
        (conv): Conv2d(256, 256, kernel_size=(3, 3), stride=(1, 1), padding=(1, 1))
      )
      (3): ConvModule(
        (conv): Conv2d(256, 256, kernel_size=(3, 3), stride=(2, 2), padding=(1, 1))
      )
    )
  )
  init_cfg={'type': 'Xavier', 'layer': 'Conv2d', 'distribution': 'uniform'}
  (head): Sparse4DHead(
    (instance_bank): InstanceBank(
      (anchor_handler): SparseBox3DKeyPointsGenerator()
    )
    (anchor_encoder): SparseBox3DEncoder(
      (pos_fc): Sequential(
        (0): Linear(in_features=3, out_features=256, bias=True)
        (1): ReLU(inplace=True)
        (2): LayerNorm((256,), eps=1e-05, elementwise_affine=True)
        (3): Linear(in_features=256, out_features=256, bias=True)
        (4): ReLU(inplace=True)
        (5): LayerNorm((256,), eps=1e-05, elementwise_affine=True)
      )
      (size_fc): Sequential(
        (0): Linear(in_features=3, out_features=256, bias=True)
        (1): ReLU(inplace=True)
        (2): LayerNorm((256,), eps=1e-05, elementwise_affine=True)
        (3): Linear(in_features=256, out_features=256, bias=True)
        (4): ReLU(inplace=True)
        (5): LayerNorm((256,), eps=1e-05, elementwise_affine=True)
      )
      (yaw_fc): Sequential(
        (0): Linear(in_features=2, out_features=256, bias=True)
        (1): ReLU(inplace=True)
        (2): LayerNorm((256,), eps=1e-05, elementwise_affine=True)
        (3): Linear(in_features=256, out_features=256, bias=True)
        (4): ReLU(inplace=True)
        (5): LayerNorm((256,), eps=1e-05, elementwise_affine=True)
      )
      (vel_fc): Sequential(
        (0): Linear(in_features=3, out_features=256, bias=True)
        (1): ReLU(inplace=True)
        (2): LayerNorm((256,), eps=1e-05, elementwise_affine=True)
        (3): Linear(in_features=256, out_features=256, bias=True)
        (4): ReLU(inplace=True)
        (5): LayerNorm((256,), eps=1e-05, elementwise_affine=True)
      )
      (output_fc): Sequential(
        (0): Linear(in_features=256, out_features=256, bias=True)
        (1): ReLU(inplace=True)
        (2): LayerNorm((256,), eps=1e-05, elementwise_affine=True)
        (3): Linear(in_features=256, out_features=256, bias=True)
        (4): ReLU(inplace=True)
        (5): LayerNorm((256,), eps=1e-05, elementwise_affine=True)
      )
    )
    (depth_module): DepthReweightModule(
      (depth_fc): Sequential(
        (0): FFN(
          (activate): ReLU(inplace=True)
          (layers): Sequential(
            (0): Sequential(
              (0): Linear(in_features=256, out_features=256, bias=True)
              (1): ReLU(inplace=True)
              (2): Dropout(p=0.0, inplace=False)
            )
            (1): Linear(in_features=256, out_features=256, bias=True)
            (2): Dropout(p=0.0, inplace=False)
          )
          (dropout_layer): Identity()
        )
        (1): FFN(
          (activate): ReLU(inplace=True)
          (layers): Sequential(
            (0): Sequential(
              (0): Linear(in_features=256, out_features=256, bias=True)
              (1): ReLU(inplace=True)
              (2): Dropout(p=0.0, inplace=False)
            )
            (1): Linear(in_features=256, out_features=256, bias=True)
            (2): Dropout(p=0.0, inplace=False)
          )
          (dropout_layer): Identity()
        )
        (2): Linear(in_features=256, out_features=12, bias=True)
      )
    )
    (kps_generator): SparseBox3DKeyPointsGenerator()
    (loss_cls): FocalLoss()
    (loss_reg): L1Loss()
    (layers): ModuleList(
      (0): MultiheadAttention(
        (attn): MultiheadAttention(
          (out_proj): NonDynamicallyQuantizableLinear(in_features=256, out_features=256, bias=True)
        )
        (proj_drop): Dropout(p=0.0, inplace=False)
        (dropout_layer): Dropout(p=0.1, inplace=False)
      )
      (1): LayerNorm((256,), eps=1e-05, elementwise_affine=True)
      (2): DeformableFeatureAggregation(
        (proj_drop): Dropout(p=0.1, inplace=False)
        (kps_generator): SparseBox3DKeyPointsGenerator(
          (learnable_fc): Linear(in_features=256, out_features=18, bias=True)
        )
        (output_proj): Linear(in_features=256, out_features=256, bias=True)
        (weights_fc): Linear(in_features=256, out_features=2496, bias=True)
      )
      (3): LayerNorm((256,), eps=1e-05, elementwise_affine=True)
      (4): FFN(
        (activate): ReLU(inplace=True)
        (layers): Sequential(
          (0): Sequential(
            (0): Linear(in_features=256, out_features=512, bias=True)
            (1): ReLU(inplace=True)
            (2): Dropout(p=0.1, inplace=False)
          )
          (1): Linear(in_features=512, out_features=256, bias=True)
          (2): Dropout(p=0.1, inplace=False)
        )
        (dropout_layer): Identity()
      )
      (5): LayerNorm((256,), eps=1e-05, elementwise_affine=True)
      (6): SparseBox3DRefinementModule(
        (layers): Sequential(
          (0): Linear(in_features=256, out_features=256, bias=True)
          (1): ReLU(inplace=True)
          (2): Linear(in_features=256, out_features=256, bias=True)
          (3): ReLU(inplace=True)
          (4): LayerNorm((256,), eps=1e-05, elementwise_affine=True)
          (5): Linear(in_features=256, out_features=256, bias=True)
          (6): ReLU(inplace=True)
          (7): Linear(in_features=256, out_features=256, bias=True)
          (8): ReLU(inplace=True)
          (9): LayerNorm((256,), eps=1e-05, elementwise_affine=True)
          (10): Linear(in_features=256, out_features=11, bias=True)
          (11): Scale()
        )
        (cls_layers): Sequential(
          (0): Linear(in_features=256, out_features=256, bias=True)
          (1): ReLU(inplace=True)
          (2): LayerNorm((256,), eps=1e-05, elementwise_affine=True)
          (3): Linear(in_features=256, out_features=256, bias=True)
          (4): ReLU(inplace=True)
          (5): LayerNorm((256,), eps=1e-05, elementwise_affine=True)
          (6): Linear(in_features=256, out_features=10, bias=True)
        )
      )
      (7): MultiheadAttention(
        (attn): MultiheadAttention(
          (out_proj): NonDynamicallyQuantizableLinear(in_features=256, out_features=256, bias=True)
        )
        (proj_drop): Dropout(p=0.0, inplace=False)
        (dropout_layer): Dropout(p=0.1, inplace=False)
      )
      (8): LayerNorm((256,), eps=1e-05, elementwise_affine=True)
      (9): DeformableFeatureAggregation(
        (proj_drop): Dropout(p=0.1, inplace=False)
        (kps_generator): SparseBox3DKeyPointsGenerator(
          (learnable_fc): Linear(in_features=256, out_features=18, bias=True)
        )
        (output_proj): Linear(in_features=256, out_features=256, bias=True)
        (weights_fc): Linear(in_features=256, out_features=2496, bias=True)
      )
      (10): LayerNorm((256,), eps=1e-05, elementwise_affine=True)
      (11): FFN(
        (activate): ReLU(inplace=True)
        (layers): Sequential(
          (0): Sequential(
            (0): Linear(in_features=256, out_features=512, bias=True)
            (1): ReLU(inplace=True)
            (2): Dropout(p=0.1, inplace=False)
          )
          (1): Linear(in_features=512, out_features=256, bias=True)
          (2): Dropout(p=0.1, inplace=False)
        )
        (dropout_layer): Identity()
      )
      (12): LayerNorm((256,), eps=1e-05, elementwise_affine=True)
      (13): SparseBox3DRefinementModule(
        (layers): Sequential(
          (0): Linear(in_features=256, out_features=256, bias=True)
          (1): ReLU(inplace=True)
          (2): Linear(in_features=256, out_features=256, bias=True)
          (3): ReLU(inplace=True)
          (4): LayerNorm((256,), eps=1e-05, elementwise_affine=True)
          (5): Linear(in_features=256, out_features=256, bias=True)
          (6): ReLU(inplace=True)
          (7): Linear(in_features=256, out_features=256, bias=True)
          (8): ReLU(inplace=True)
          (9): LayerNorm((256,), eps=1e-05, elementwise_affine=True)
          (10): Linear(in_features=256, out_features=11, bias=True)
          (11): Scale()
        )
        (cls_layers): Sequential(
          (0): Linear(in_features=256, out_features=256, bias=True)
          (1): ReLU(inplace=True)
          (2): LayerNorm((256,), eps=1e-05, elementwise_affine=True)
          (3): Linear(in_features=256, out_features=256, bias=True)
          (4): ReLU(inplace=True)
          (5): LayerNorm((256,), eps=1e-05, elementwise_affine=True)
          (6): Linear(in_features=256, out_features=10, bias=True)
        )
      )
      (14): MultiheadAttention(
        (attn): MultiheadAttention(
          (out_proj): NonDynamicallyQuantizableLinear(in_features=256, out_features=256, bias=True)
        )
        (proj_drop): Dropout(p=0.0, inplace=False)
        (dropout_layer): Dropout(p=0.1, inplace=False)
      )
      (15): LayerNorm((256,), eps=1e-05, elementwise_affine=True)
      (16): DeformableFeatureAggregation(
        (proj_drop): Dropout(p=0.1, inplace=False)
        (kps_generator): SparseBox3DKeyPointsGenerator(
          (learnable_fc): Linear(in_features=256, out_features=18, bias=True)
        )
        (output_proj): Linear(in_features=256, out_features=256, bias=True)
        (weights_fc): Linear(in_features=256, out_features=2496, bias=True)
      )
      (17): LayerNorm((256,), eps=1e-05, elementwise_affine=True)
      (18): FFN(
        (activate): ReLU(inplace=True)
        (layers): Sequential(
          (0): Sequential(
            (0): Linear(in_features=256, out_features=512, bias=True)
            (1): ReLU(inplace=True)
            (2): Dropout(p=0.1, inplace=False)
          )
          (1): Linear(in_features=512, out_features=256, bias=True)
          (2): Dropout(p=0.1, inplace=False)
        )
        (dropout_layer): Identity()
      )
      (19): LayerNorm((256,), eps=1e-05, elementwise_affine=True)
      (20): SparseBox3DRefinementModule(
        (layers): Sequential(
          (0): Linear(in_features=256, out_features=256, bias=True)
          (1): ReLU(inplace=True)
          (2): Linear(in_features=256, out_features=256, bias=True)
          (3): ReLU(inplace=True)
          (4): LayerNorm((256,), eps=1e-05, elementwise_affine=True)
          (5): Linear(in_features=256, out_features=256, bias=True)
          (6): ReLU(inplace=True)
          (7): Linear(in_features=256, out_features=256, bias=True)
          (8): ReLU(inplace=True)
          (9): LayerNorm((256,), eps=1e-05, elementwise_affine=True)
          (10): Linear(in_features=256, out_features=11, bias=True)
          (11): Scale()
        )
        (cls_layers): Sequential(
          (0): Linear(in_features=256, out_features=256, bias=True)
          (1): ReLU(inplace=True)
          (2): LayerNorm((256,), eps=1e-05, elementwise_affine=True)
          (3): Linear(in_features=256, out_features=256, bias=True)
          (4): ReLU(inplace=True)
          (5): LayerNorm((256,), eps=1e-05, elementwise_affine=True)
          (6): Linear(in_features=256, out_features=10, bias=True)
        )
      )
      (21): MultiheadAttention(
        (attn): MultiheadAttention(
          (out_proj): NonDynamicallyQuantizableLinear(in_features=256, out_features=256, bias=True)
        )
        (proj_drop): Dropout(p=0.0, inplace=False)
        (dropout_layer): Dropout(p=0.1, inplace=False)
      )
      (22): LayerNorm((256,), eps=1e-05, elementwise_affine=True)
      (23): DeformableFeatureAggregation(
        (proj_drop): Dropout(p=0.1, inplace=False)
        (kps_generator): SparseBox3DKeyPointsGenerator(
          (learnable_fc): Linear(in_features=256, out_features=18, bias=True)
        )
        (output_proj): Linear(in_features=256, out_features=256, bias=True)
        (weights_fc): Linear(in_features=256, out_features=2496, bias=True)
      )
      (24): LayerNorm((256,), eps=1e-05, elementwise_affine=True)
      (25): FFN(
        (activate): ReLU(inplace=True)
        (layers): Sequential(
          (0): Sequential(
            (0): Linear(in_features=256, out_features=512, bias=True)
            (1): ReLU(inplace=True)
            (2): Dropout(p=0.1, inplace=False)
          )
          (1): Linear(in_features=512, out_features=256, bias=True)
          (2): Dropout(p=0.1, inplace=False)
        )
        (dropout_layer): Identity()
      )
      (26): LayerNorm((256,), eps=1e-05, elementwise_affine=True)
      (27): SparseBox3DRefinementModule(
        (layers): Sequential(
          (0): Linear(in_features=256, out_features=256, bias=True)
          (1): ReLU(inplace=True)
          (2): Linear(in_features=256, out_features=256, bias=True)
          (3): ReLU(inplace=True)
          (4): LayerNorm((256,), eps=1e-05, elementwise_affine=True)
          (5): Linear(in_features=256, out_features=256, bias=True)
          (6): ReLU(inplace=True)
          (7): Linear(in_features=256, out_features=256, bias=True)
          (8): ReLU(inplace=True)
          (9): LayerNorm((256,), eps=1e-05, elementwise_affine=True)
          (10): Linear(in_features=256, out_features=11, bias=True)
          (11): Scale()
        )
        (cls_layers): Sequential(
          (0): Linear(in_features=256, out_features=256, bias=True)
          (1): ReLU(inplace=True)
          (2): LayerNorm((256,), eps=1e-05, elementwise_affine=True)
          (3): Linear(in_features=256, out_features=256, bias=True)
          (4): ReLU(inplace=True)
          (5): LayerNorm((256,), eps=1e-05, elementwise_affine=True)
          (6): Linear(in_features=256, out_features=10, bias=True)
        )
      )
      (28): MultiheadAttention(
        (attn): MultiheadAttention(
          (out_proj): NonDynamicallyQuantizableLinear(in_features=256, out_features=256, bias=True)
        )
        (proj_drop): Dropout(p=0.0, inplace=False)
        (dropout_layer): Dropout(p=0.1, inplace=False)
      )
      (29): LayerNorm((256,), eps=1e-05, elementwise_affine=True)
      (30): DeformableFeatureAggregation(
        (proj_drop): Dropout(p=0.1, inplace=False)
        (kps_generator): SparseBox3DKeyPointsGenerator(
          (learnable_fc): Linear(in_features=256, out_features=18, bias=True)
        )
        (output_proj): Linear(in_features=256, out_features=256, bias=True)
        (weights_fc): Linear(in_features=256, out_features=2496, bias=True)
      )
      (31): LayerNorm((256,), eps=1e-05, elementwise_affine=True)
      (32): FFN(
        (activate): ReLU(inplace=True)
        (layers): Sequential(
          (0): Sequential(
            (0): Linear(in_features=256, out_features=512, bias=True)
            (1): ReLU(inplace=True)
            (2): Dropout(p=0.1, inplace=False)
          )
          (1): Linear(in_features=512, out_features=256, bias=True)
          (2): Dropout(p=0.1, inplace=False)
        )
        (dropout_layer): Identity()
      )
      (33): LayerNorm((256,), eps=1e-05, elementwise_affine=True)
      (34): SparseBox3DRefinementModule(
        (layers): Sequential(
          (0): Linear(in_features=256, out_features=256, bias=True)
          (1): ReLU(inplace=True)
          (2): Linear(in_features=256, out_features=256, bias=True)
          (3): ReLU(inplace=True)
          (4): LayerNorm((256,), eps=1e-05, elementwise_affine=True)
          (5): Linear(in_features=256, out_features=256, bias=True)
          (6): ReLU(inplace=True)
          (7): Linear(in_features=256, out_features=256, bias=True)
          (8): ReLU(inplace=True)
          (9): LayerNorm((256,), eps=1e-05, elementwise_affine=True)
          (10): Linear(in_features=256, out_features=11, bias=True)
          (11): Scale()
        )
        (cls_layers): Sequential(
          (0): Linear(in_features=256, out_features=256, bias=True)
          (1): ReLU(inplace=True)
          (2): LayerNorm((256,), eps=1e-05, elementwise_affine=True)
          (3): Linear(in_features=256, out_features=256, bias=True)
          (4): ReLU(inplace=True)
          (5): LayerNorm((256,), eps=1e-05, elementwise_affine=True)
          (6): Linear(in_features=256, out_features=10, bias=True)
        )
      )
      (35): MultiheadAttention(
        (attn): MultiheadAttention(
          (out_proj): NonDynamicallyQuantizableLinear(in_features=256, out_features=256, bias=True)
        )
        (proj_drop): Dropout(p=0.0, inplace=False)
        (dropout_layer): Dropout(p=0.1, inplace=False)
      )
      (36): LayerNorm((256,), eps=1e-05, elementwise_affine=True)
      (37): DeformableFeatureAggregation(
        (proj_drop): Dropout(p=0.1, inplace=False)
        (kps_generator): SparseBox3DKeyPointsGenerator(
          (learnable_fc): Linear(in_features=256, out_features=18, bias=True)
        )
        (output_proj): Linear(in_features=256, out_features=256, bias=True)
        (weights_fc): Linear(in_features=256, out_features=2496, bias=True)
      )
      (38): LayerNorm((256,), eps=1e-05, elementwise_affine=True)
      (39): FFN(
        (activate): ReLU(inplace=True)
        (layers): Sequential(
          (0): Sequential(
            (0): Linear(in_features=256, out_features=512, bias=True)
            (1): ReLU(inplace=True)
            (2): Dropout(p=0.1, inplace=False)
          )
          (1): Linear(in_features=512, out_features=256, bias=True)
          (2): Dropout(p=0.1, inplace=False)
        )
        (dropout_layer): Identity()
      )
      (40): LayerNorm((256,), eps=1e-05, elementwise_affine=True)
      (41): SparseBox3DRefinementModule(
        (layers): Sequential(
          (0): Linear(in_features=256, out_features=256, bias=True)
          (1): ReLU(inplace=True)
          (2): Linear(in_features=256, out_features=256, bias=True)
          (3): ReLU(inplace=True)
          (4): LayerNorm((256,), eps=1e-05, elementwise_affine=True)
          (5): Linear(in_features=256, out_features=256, bias=True)
          (6): ReLU(inplace=True)
          (7): Linear(in_features=256, out_features=256, bias=True)
          (8): ReLU(inplace=True)
          (9): LayerNorm((256,), eps=1e-05, elementwise_affine=True)
          (10): Linear(in_features=256, out_features=11, bias=True)
          (11): Scale()
        )
        (cls_layers): Sequential(
          (0): Linear(in_features=256, out_features=256, bias=True)
          (1): ReLU(inplace=True)
          (2): LayerNorm((256,), eps=1e-05, elementwise_affine=True)
          (3): Linear(in_features=256, out_features=256, bias=True)
          (4): ReLU(inplace=True)
          (5): LayerNorm((256,), eps=1e-05, elementwise_affine=True)
          (6): Linear(in_features=256, out_features=10, bias=True)
        )
      )
    )
  )
  (grid_mask): GridMask()
)
